dialogue_policy.pth (torch, 820786 bytes, 11 tensors)

network.0.weight f4 [256, 24]
0.058661584 0.1934491 -0.023252284 0.11007986 -0.07404181 -0.17105873 0.03707629 0.03519874
0.14789692 -0.07817201 -0.17954138 -0.14627574 0.09729429 -0.052601207 0.1699631 -0.16828138
0.1804591 -0.12099884 -0.073516645 0.1444126 -0.013418852 -0.11732115 0.17762712 0.011517798
0.1655016 -0.11007605 0.0030490842 0.19820574 0.0044620573 -0.13375488 -0.09522254 -0.09420041
0.051107787 -0.03697 -0.16085832 0.07106989 0.016795076 0.07523525 -0.14532216 -0.15581946
0.09272366 0.1022183 0.016498402 -0.069007725 -0.050391603 -0.12112963 -0.17125559 0.07610588
0.14837743 -0.1738763 0.075750194 2.0513136e-05 -0.009012056 -0.11453895 -0.11527414 0.15804102
-0.1144223 -0.18579203 0.14590363 0.120449685 -0.016210487 0.11993846 -0.13477457 -0.1616935
-0.035358224 0.009937191 -0.009982037 0.19656707 -0.029707279 0.08983698 0.049792536 -0.07054119
0.08657164 0.1025916 0.1568785 -0.11228185 -0.10050906 0.10172511 0.09390508 -0.08847985
0.17794476 0.068036474 0.02563996 0.116571724 -0.17003845 0.04623026 -0.077546105 0.05690889
-0.05020944 0.14251189 -0.027702639 -0.013309984 -0.0032004386 -0.01203065 0.056785155 0.17723829
0.095532134 -0.019861655 -0.051473737 0.13905616 -0.16853394 -0.022657841 -0.050256163 0.14649723
0.16071105 0.024065437 0.18191108 -0.17887183 -0.08037446 -0.1682114 -0.07652113 0.024535926
0.1322547 -0.08493599 0.05289608 0.13536395 0.13859324 -0.08289015 0.0065534483 -0.19530754
-0.030901179 -0.065900385 -0.11020737 -0.18963224 0.059616845 0.075313896 -0.064779095 0.053084273
0.07108405 0.06414285 -0.091904595 0.17395578 -0.05247664 -0.18863846 0.1112085 0.03701638
0.013187027 -0.07508703 0.010578793 -0.116346955 0.09475407 0.12066474 0.061292425 -0.104141556
-0.0957598 0.13950373 0.19077992 0.026425932 -0.1469181 -0.02427765 0.18280897 0.040919594
0.1979237 -0.14344922 -0.16129817 -0.06380551 0.100870125 0.17038737 0.12527317 -0.045467112
0.14594595 0.13748895 0.03709213 0.054723013 -0.049596652 -0.11613331 0.09521858 -0.080194466
0.05684643 -0.16622089 -0.033859815 -0.06841632 -0.1301439 0.112570375 0.0694011 -0.059969727
-0.15893242 -0.07770491 0.19988993 0.20249175 0.17481185 -0.13872975 -0.16773972 0.0049342
-0.081903234 0.10528378 0.07416998 0.07655332 0.14126165 -0.12588868 -0.17611912 -0.13785306
-0.10721528 -0.20204741 0.019452877 -0.05076276 -0.14896192 -0.121390484 -0.15177256 0.1427382
-0.07273352 -0.14664595 0.04653944 -0.023144415 -0.035928138 0.09783104 -0.08865201 -0.055862844
0.053720083 -0.17390704 -0.18420438 0.09984033 0.14441878 0.13155486 0.03489029 0.23623307
0.048379175 -0.09202502 -0.12787853 0.07592737 0.04681385 -0.03133519 0.05320448 -0.0638373
0.0873588 0.08634636 -0.14572021 0.11564012 -0.0047752294 -0.13327791 -0.16233844 0.10037555
0.1018304 0.066179514 0.057187922 0.15546599 -0.20372754 -0.026637927 0.015062701 0.08168789
-0.1579804 0.10012985 -0.15462898 -0.17440191 -0.12816219 0.039365754 0.19792816 -0.009566008
-0.19622295 -0.06835804 0.007382831 0.17762515 0.13854279 0.11789318 -0.068581134 0.18517154
00000000: 2147 703d 8517 463e 937b bebc 8d71 e13d
00000010: 3ca3 97bd 052a 2fbe 4fdd 173d 8e2c 103d
00000020: 4a72 173e a618 a0bd b2d9 37be 4fc9 15be
00000030: 3b42 c73d 5d74 57bd cf0a 2e3e f451 2cbe
00000040: 45ca 383e 3dce f7bd e58f 96bd e6e0 133e
00000050: bfda 5bbc 1246 f0bd e2e3 353e 25b5 3c3c
00000060: 4079 293e 8d6f e1bd 25d3 473b 72f6 4a3e
00000070: 7336 923b 0af7 08be 0904 c3bd 25ec c0bd
00000080: 6656 513d db6d 17bd 0bb8 24be 178d 913d
00000090: d495 893c f014 9a3d 55cf 14be 238f 1fbe
000000a0: e7e5 bd3d d457 d13d a827 873c ec53 8dbd
000000b0: 6d67 4ebd d012 f8bd a05d 2fbe 66dd 9b3d
000000c0: 41f0 173e a10c 32be eb22 9b3d a013 ac37
000000d0: 4da7 13bc 6693 eabd d914 ecbd 81d5 213e
000000e0: 3d56 eabd 4440 3ebe c367 153e 53ae f63d
000000f0: dbcb 84bc 4ca2 f53d 5802 0abe fb92 25be
00000100: c9d3 10bd 9acf 223c b38b 23bc e148 493e
00000110: ae5c f3bc 73fc b73d 42f3 4b3d e677 90bd
00000120: 794c b13d 8b1b d23d c2a4 203e 07f4 e5bd
00000130: b2d7 cdbd 4155 d03d 4e51 c03d ec34 b5bd
00000140: 2737 363e b556 8b3d e50a d23c 28bd ee3d
00000150: 8f1e 2ebe f15b 3d3d 7ed0 9ebd 4c19 693d
00000160: 6aa8 4dbd a3ee 113e a5f0 e2bc 1e12 5abc
00000170: 73be 51bb 341c 45bc 8d97 683d f47d 353e
00000180: 5aa6 c33d e9b4 a2bc 20d6 52bd bd64 0e3e
00000190: 2994 2cbe f09c b9bc 68d9 4dbd 5f03 163e
000001a0: 7091 243e e124 c53c e646 3a3e 2d2a 37be
000001b0: 5d9b a4bd 9c3f 2cbe 1cb7 9cbd 91ff c83c
000001c0: c76d 073e ecf2 adbd 8fa9 583d d99c 0a3e
000001d0: 63eb 0d3e 50c2 a9bd 4fbe d63b b3fe 47be
000001e0: 7824 fdbc c8f6 86bd 67b4 e1bd f42e 42be
000001f0: cb30 743d 2c3e 9a3d e7aa 84bd e56e 593d
00000200: 8494 913d 545d 833d 7a38 bcbd 7721 323e
00000210: bff1 56bd 712a 41be 48c1 e33d 7d9e 173d
00000220: 660e 583c 3bc7 99bd ac52 2d3c 5047 eebd
00000230: 6c0e c23d 131f f73d c40d 7b3d 2b48 d5bd
00000240: b71d c4bd 11da 0e3e d05b 433e 327b d83c
00000250: b371 16be ece1 c6bc 4632 3b3e 4e9b 273d
00000260: 83ac 4a3e 5ae4 12be 592b 25be 77ac 82bd
00000270: ff94 ce3d 077a 2e3e 9c47 003e b93b 3abd
00000280: db72 153e e7c9 0c3e ebed 173d 3d25 603d
00000290: dc25 4bbd 4dd7 edbd f501 c33d ff3c a4bd
000002a0: cdd7 683d cf35 2abe 97b0 0abd db1d 8cbd
000002b0: 7144 05be 4c8b e63d 2a22 8e3d d1a2 75bd
000002c0: 2ebf 22be c023 9fbd f2af 4c3e ff59 4f3e
000002d0: e101 333e 2c0f 0ebe f6c3 2bbe 12af a13b
000002e0: e2bc a7bd 069f d73d 6ee6 973d fdc7 9c3d
000002f0: e5a6 103e f6e8 00be 9258 34be 5a29 0dbe
00000300: af93 dbbd 84e5 4ebe a45b 9f3c 9dec 4fbd
00000310: 7989 18be 939b f8bd 446a 1bbe f629 123e
00000320: 50f5 94bd 5b2a 16be 24a0 3e3d 5b99 bdbc
00000330: 6229 13bd a45b c83d 2f8f b5bd 70d0 64bd
00000340: 9709 5c3d b014 32be 13a0 3cbe 1679 cc3d
00000350: 84e2 133e 51b6 063e 1fe9 0e3d 15e7 713e
00000360: 3e29 463d 9d77 bcbd 97f2 02be cf7f 9b3d
00000370: e1bf 3f3d 5459 00bd f1ec 593d 21bd 82bd
00000380: 2ce9 b23d 5cd6 b03d ae37 15be bad4 ec3d
00000390: 8779 9cbb 017a 08be 0c3c 26be b291 cd3d
000003a0: 758c d03d 2089 873d e23d 6a3d 7a32 1f3e
000003b0: f49d 50be c837 dabc 8cc9 763c fb4b a73d
000003c0: 9dc5 21be e110 cd3d 0f57 1ebe 6a96 32be
000003d0: f33c 03be fc3d 213d aead 4a3e bfba 1cbc
000003e0: abee 48be 4dff 8bbd adeb f13b 5ee3 353e
000003f0: 29de 0d3e fb71 f13d 4474 8cbd 9c9d 3d3e

network.0.bias f4 [256]
-0.19914977 0.12585506 0.129685 -0.15507671 -0.16274911 0.08472097 -0.15894541 0.19603808
0.18635723 0.24621697 0.23676898 -0.101390496 0.11665806 -0.018734552 -0.053070113 0.17830741
0.19810998 0.13045809 -0.19389683 -0.09696309 -0.07567425 0.17257468 0.07761284 -0.10330769
0.04565438 0.0284431 -0.20365138 -0.045260422 -0.14073895 0.045023233 -0.16752 0.19909208
0.08832227 -0.15077072 -0.15511385 0.0037284999 -0.0995311 -0.17598392 0.0467303 0.057248786
-0.03050653 0.04632773 0.21549952 0.12016975 0.1131237 0.059023995 0.14039883 0.13212684
0.13491248 -0.12591554 -0.18194887 0.09580858 0.16602461 -0.009030769 -0.12922531 -0.16720591
0.1453409 -0.12140614 -0.094408855 0.058524404 -0.058517676 -0.024337998 0.23695914 0.11649418
-0.055568285 -0.0809051 -0.10793584 -0.15339369 -0.15209958 0.15461458 0.088626586 0.17301881
-0.115206786 0.20170827 0.049579944 0.017719336 0.07592731 -0.1177219 0.10482404 0.23599711
-0.018350424 -0.14605455 -0.008840943 -0.19070683 -0.115382545 0.17987691 0.1154387 0.22857794
-0.10261951 0.18933402 -0.09178716 -0.18731798 0.1870099 0.16990508 -0.16412485 0.21792582
0.1978815 -0.012197003 0.053103726 0.1755656 0.2324062 0.23784427 -0.16428562 0.18643327
0.24859665 0.10316526 0.07427361 -0.05853904 -0.025483325 -0.17483185 0.13640653 -0.13207994
0.008203453 -0.08874058 -0.016259164 0.2429527 -0.1951777 0.14671484 -0.123513125 -0.06741999
0.0044772928 0.1342934 0.19670804 -0.058998458 0.23751216 0.14196078 0.07612479 0.19991699
0.23213486 -0.19300081 -0.19838151 0.107439555 -0.033637065 -0.046223033 0.16530555 0.05417959
0.076904826 0.07696971 0.065327846 0.12934887 0.15354845 -0.20242862 0.16401537 -0.0046125115
-0.035333794 -0.14606455 -0.18349408 0.045992266 -0.087096006 0.20490624 0.004892358 -0.07813532
0.10977133 0.1549605 0.13479355 -0.122531995 0.19521253 0.10548368 0.16380031 -0.002140898
0.17553766 0.0068257684 0.05988861 0.15907891 0.21049352 -0.06330559 -0.12110651 -0.07891623
-0.022915948 0.0063973614 -0.0781123 -0.00861478 0.018752992 0.22727501 0.06320885 0.2177279
0.16738506 -0.1545934 0.15398787 -0.1652651 -0.17784111 -0.01117158 0.2104465 0.065554135
0.1394232 -0.07302199 0.08930614 -0.18849534 0.008424866 -0.17266406 0.23702084 0.09686982
-0.023413615 -0.121971376 -0.08573155 0.13460122 -0.068138115 0.060782783 0.05770085 0.09707759
-0.024684798 0.08533232 -0.01252995 -0.10919473 0.038675066 0.15580694 -0.06838583 -0.16698523
0.23256782 0.18219039 0.20391335 0.11201814 -0.11396568 0.2246298 0.20602868 0.071751535
-0.14665428 -0.11735667 -0.119589105 -0.16052975 0.13625067 -0.1722101 -0.059166845 -0.11676491
0.09597248 -0.13506238 0.2063867 0.22724403 0.19938779 0.11217254 0.20953742 0.18383898
-0.10833253 0.18352033 -0.102190554 0.23677304 0.21941662 -0.1771446 -0.12601398 -0.12016734
0.0068284958 -0.1434396 0.06659085 0.21613064 -0.18442595 0.1175915 -0.009264126 0.14781383
0.097076885 -0.14129673 -0.03182909 0.16994634 0.24401729 0.12679689 0.23842269 -0.07181793
00000000: ebed 4bbe 26e0 003e 25cc 043e 6ecc 1ebe
00000010: b4a7 26be 3082 ad3d 96c2 22be 35be 483e
00000020: 6ed4 3e3e 4d20 7c3e 9173 723e d2a5 cfbd
00000030: 6cea ee3d 3479 99bc 0c60 59bd 3896 363e
00000040: 58dd 4a3e ce96 053e e48c 46be 9694 c6bd
00000050: 1afb 9abd 6bb7 303e 7bf3 9e3d fb92 d3bd
00000060: 1600 3b3d 8101 e93c fd89 50be fe62 39bd
00000070: df1d 10be 486a 383d 5d8a 2bbe cbde 4b3e
00000080: 4ee2 b43d a463 1abe 2ad6 1ebe d959 743b
00000090: f6d6 cbbd 2135 34be 4568 3f3d b47d 6a3d
000000a0: d5e8 f9bc 25c2 3d3d e8ab 5c3e 8f1b f63d
000000b0: 66ad e73d 25c3 713d b6c4 0f3e 424c 073e
000000c0: 7f26 0a3e 01f0 00be ce50 3abe 4a37 c43d
000000d0: 5b02 2a3e caf5 13bc a453 04be 0738 2bbe
000000e0: 3fd4 143e c8a3 f8bd 6e59 c1bd 49b7 6f3d
000000f0: 3bb0 6fbd 7b60 c7bc 6ba5 723e 8094 ee3d
00000100: 929b 63bd 93b1 a5bd 770d ddbd 3c13 1dbe
00000110: febf 1bbe 4953 1e3e db81 b53d d82b 313e
00000120: 89f1 ebbd 9d8c 4e3e 5714 4b3d 2428 913c
00000130: c77f 9b3d 2e18 f1bd fcad d63d 3aa9 713e
00000140: a153 96bc 538f 15be 9ad9 10bc a748 43be
00000150: af4d ecbd a731 383e 206b ec3d 5610 6a3e
00000160: 2d2a d2bd c7e0 413e e8fa bbbd 49d0 3fbe
00000170: 867f 3f3e 99fb 2d3e 5810 28be f227 5f3e
00000180: 73a1 4a3e f0d5 47bc 4b83 593d 78c7 333e
00000190: e4fb 6d3e 738d 733e 7d3a 28be 5de8 3e3e
000001a0: 1f90 7e3e 4f48 d33d c31c 983d a2c6 6fbd
000001b0: 68c2 d0bc 1f07 33be 27ae 0b3e f73f 07be
000001c0: c767 063c 9fbd b5bd f031 85bc 98c8 783e
000001d0: aadc 47be 6a3c 163e 73f4 fcbd 7e13 8abd
000001e0: 41b6 923b 3684 093e d56d 493e 5ea8 71bd
000001f0: 6336 733e 2b5e 113e 50e7 9b3d 0ab7 4c3e
00000200: c3b4 6d3e 01a2 45be 8624 4bbe 4509 dc3d
00000210: 05c7 09bd 5d54 3dbd dc45 293e 6beb 5d3d
00000220: 4780 9d3d 4ca2 9d3d 9bca 853d 0874 043e
00000230: ce3b 1d3e 7349 4fbe a5f3 273e 8d24 97bb
00000240: 2bba 10bd f291 15be dfe5 3bbe 6362 3c3d
00000250: 645f b2bd f1d2 513e 1350 a03b 6905 a0bd
00000260: cbcf e03d f7ad 1e3e 5207 0a3e 0ef2 fabd
00000270: cbe5 473e d407 d83d 45bb 273e 4f4e 0cbb
00000280: 25c0 333e b2aa df3b c24d 753d 95e5 223e
00000290: 9d8b 573e 5ca6 81bd b106 f8bd d59e a1bd
000002a0: 3aba bbbc f5a0 d13b 57f9 9fbd 0225 0dbc
000002b0: e09f 993c c8ba 683e a473 813d 10f4 5e3e
000002c0: fd66 2b3e bb4d 1ebe ffae 1d3e 413b 29be
000002d0: fb1b 36be 0109 37bc 4a7f 573e 3f41 863d
000002e0: f5c4 0e3e 8e8c 95bd 23e6 b63d ec04 41be
000002f0: 7308 0a3c d9ce 30be 97b5 723e af63 c63d
00000300: e9cd bfbc 21cc f9bd 0694 afbd e7d4 093e
00000310: ff8b 8bbd 5ef7 783d ba57 6c3d 9ed0 c63d
00000320: c637 cabc b6c2 ae3d 6b4a 4dbc 7da1 dfbd
00000330: bf69 1e3d db8b 1f3e df0d 8cbd 2dfe 2abe
00000340: 4226 6e3e 1e90 3a3e a9ce 503e c469 e53d
00000350: d766 e9bd 5b05 663e 2ff9 523e 78f2 923d
00000360: 8a2c 16be b258 f0bd 22eb f4bd e961 24be
00000370: 4c85 0b3e d857 30be ef58 72bd 7122 efbd
00000380: 388d c43d cb4d 0abe 0957 533e a9b2 683e
00000390: 502c 4c3e b7ba e53d fa90 563e 4940 3c3e
000003a0: 72dd ddbd c1ec 3b3e 4849 d1bd a274 723e
000003b0: c0ae 603e 6565 35be cf09 01be 4b1a f6bd
000003c0: 93c1 df3b d5e1 12be c960 883d 5a51 5d3e
000003d0: 28da 3cbe d0d3 f03d 90c8 17bc 825c 173e
000003e0: 3fd0 c63d 17b0 10be 385f 02bd 6a06 2e3e
000003f0: abdf 793e 0bd7 013e 1425 743e 4715 93bd

network.3.weight f4 [256, 256]
-0.004999213 0.04488155 0.006515737 0.04294298 -0.0011177436 0.03203168 -0.05604825 -0.023505338
0.061554775 0.07201806 -0.024631992 -0.04248164 -0.006368994 0.02506397 0.03010729 0.034527987
0.09778305 0.050802868 -0.0023300275 0.0118975565 0.016270816 0.026341032 0.05126683 0.038831875
-9.061721e-05 0.096639864 -0.05832061 -0.019673482 0.004778601 0.08669213 0.0436534 -0.0006755096
0.11181688 0.049604207 -0.0043976307 0.09586582 0.008336686 0.046596736 0.060837127 0.020237824
0.04604144 0.058779083 0.00060654455 0.041105445 0.03906639 0.018056864 0.03469661 0.0003644574
0.06290564 0.04699391 -0.032549903 0.08596429 0.079070024 -0.062426075 0.03636422 -0.0073653534
0.082852446 0.03065361 0.052902155 0.084167354 -0.024983443 -0.032517895 0.030531313 0.09051185
-0.053789355 0.02065941 0.054834872 0.013114974 0.016638264 -0.00423851 0.058448046 0.06566995
0.058076054 0.08519643 0.05229539 0.012459269 -0.010282369 -0.035939552 0.026505705 0.09311907
-0.02364999 -0.044406004 0.03411387 0.0061317757 -0.04237728 0.0882369 0.05195815 -0.021164583
0.011972956 0.08227307 -0.033297405 0.0347894 0.06260352 0.060175937 0.02023182 0.07853328
0.03238052 -0.05351194 0.01548798 0.010587732 0.019875875 0.073065326 -0.0073745996 0.021825109
0.08175778 0.028617907 0.04935173 -0.060809277 -0.0015161633 0.051624693 0.08458292 0.043566264
0.015637409 -0.056237653 -0.0031276634 0.031616945 -0.04006496 0.0877628 -0.036935337 -0.047450542
0.10233357 0.06308367 0.06184979 -0.026122086 0.04612921 0.0664606 0.071937636 0.046746198
-0.004159715 -0.019237973 0.029085599 0.011838736 -0.012301169 0.048682004 0.03762656 -0.0036772501
0.034098405 0.060278695 0.09883319 0.042275257 0.021936 -0.007902227 -0.018807676 -0.035286546
-0.032773137 -0.059150927 -0.061094962 0.06459908 0.002599962 0.016406976 0.071887285 -0.046357863
0.07592642 0.065088056 0.04022396 -0.029255405 -0.011078644 0.098556936 -0.0069120903 -0.024619665
0.06419391 0.05727063 0.058853894 0.087725006 0.02633595 -0.018148117 0.04584565 -0.06206478
-0.010088578 0.06312462 -0.0397112 -0.008276436 0.07800026 0.0098380875 0.079184994 0.016878586
0.020818345 0.004790388 0.056978453 -0.037580386 -0.041288428 0.020645589 0.08229049 -0.005258633
0.0939528 0.032109864 0.08270485 0.041758284 -0.0054438068 -0.049603365 0.033636708 0.018159902
0.020337187 0.052504405 0.029582739 -0.018394655 -0.054431498 0.06762966 0.023145484 0.059644397
0.02545929 0.08608478 0.020819582 0.0039728433 0.0018274671 -0.020093884 -0.04726246 0.035444222
0.0061866674 0.06498269 -0.025153067 0.073640764 -0.031668715 0.056951795 -0.017019192 0.09866522
-0.0068565086 -0.012160912 0.039463848 0.05988545 -0.0041242233 -0.0030138567 -0.042842746 -0.05493012
-0.01771984 0.034521677 0.090303764 0.078919075 0.049286135 0.016156254 0.0044638664 0.014216944
0.024164014 -0.022410706 -0.0053783134 -0.008693708 0.097420566 -0.05204598 -0.015954196 -0.03084927
0.026558032 -0.048051126 0.009785848 0.021814993 0.03555152 0.012480509 -0.061331905 0.056859877
-0.020348104 0.056696735 -0.020663828 0.022900863 0.034293808 0.09759392 0.07333888 -0.01786793
00000000: 70d0 a3bb b7d5 373d f781 d53b fae4 2f3d
00000010: 4081 92ba a733 033d da92 65bd 448e c0bc
00000020: dc20 7c3d 347e 933d 08c9 c9bc 3a01 2ebd
00000030: feb2 d0bb f452 cd3c 90a3 f63c 386d 0d3d
00000040: 7b42 c83d ab16 503d 60b3 18bb f8ed 423c
00000050: 604a 853c 26c9 d73c 2bfd 513d 2c0e 1f3d
00000060: bf09 beb8 1feb c53d 98e1 6ebd 482a a1bc
00000070: d095 9c3b a58b b13d e8cd 323d af14 31ba
00000080: 4000 e53d c82d 4b3d 001a 90bb 4d55 c43d
00000090: 9896 083c 38dc 3e3d 5a30 793d cbc9 a53c
000000a0: f395 3c3d 56c2 703d 8400 1f3a 2f5e 283d
000000b0: 1404 203d fdeb 933c 081e 0e3d a514 bf39
000000c0: acd4 803d b07c 403d 0c53 05bd 0c0e b03d
000000d0: 77ef a13d 7cb2 7fbd a6f2 143d 1059 f1bb
000000e0: 8bae a93d 481d fb3c eeaf 583d ef5f ac3d
000000f0: 14aa ccbc 7c31 05bd ce1c fa3c 475e b93d
00000100: 3a52 5cbd ec3d a93c 889a 603d 30e0 563c
00000110: f84c 883c 33e3 8abb 3867 6f3d f77d 863d
00000120: 28e1 6d3d 777b ae3d b133 563d f621 4c3c
00000130: 6277 28bc 5a35 13bd 7e22 d93c 36b5 be3d
00000140: a0bd c1bc 12e3 35bd fcba 0b3d 10ed c83b
00000150: cc93 2dbd 8cb5 b43d 12d2 543d 5961 adbc
00000160: 382a 443c c97e a83d dc62 08bd 547f 0e3d
00000170: 4636 803d 0b7b 763d 34bd a53c 0ed6 a03d
00000180: 70a1 043d 562f 5bbd 4cc1 7d3c 2b78 2d3c
00000190: bbd2 a23c 46a3 953d a0a6 f1bb 92ca b23c
000001a0: 9f70 a73d 1a70 ea3c 0a25 4a3d 2613 79bd
000001b0: 00ba c6ba 6a74 533d cf39 ad3d 8a72 323d
000001c0: 061a 803c 7459 66bd 7cf9 4cbb c580 013d
000001d0: 281b 24bd fcbc b33d 8249 17bd 805b 42bd
000001e0: 4394 d13d 0332 813d 3556 7d3d fcfd d5bc
000001f0: fcf1 3c3d 7f1c 883d 0a54 933d f178 3f3d
00000200: 384e 88bb f498 9dbc ec44 ee3c 42f7 413c
00000210: d88a 49bc c866 473d 4f1e 1a3d 05fe 70bb
00000220: c5aa 0b3d cbe6 763d 0e69 ca3d d228 2d3d
00000230: 20b3 b33c 5878 01bc 8e12 9abc a088 10bd
00000240: 203d 06bd 3e48 72bd b63e 7abd 864c 843d
00000250: 2064 2a3b ec67 863c a439 933d bee1 3dbd
00000260: 507f 9b3d e34c 853d e1c1 243d 08a9 efbc
00000270: 3383 35bc 38d8 c93d d17e e2bb 2eaf c9bc
00000280: 1978 833d 9c94 6a3d c810 713d 2ba9 b33d
00000290: 7dbe d73c 5cab 94bc a6c8 3b3d a437 7ebd
000002a0: 904a 25bc 7b47 813d 36a8 22bd e399 07bc
000002b0: 9abe 9f3d ee2f 213c be2b a23d f644 8a3c
000002c0: 3c8b aa3c b0f8 9c3b 3d62 693d e4ed 19bd
000002d0: 0e1e 29bd f020 a93c eb87 a83d 9c50 acbb
000002e0: 536a c03d a285 033d 2961 a93d bc0a 2b3d
000002f0: f661 b2bb e62c 4bbd a5c6 093d 13c4 943c
00000300: 2c9a a63c dc0e 573d 8057 f23c 63b0 96bc
00000310: 90f3 5ebd 6b81 8a3d 999b bd3c af4d 743d
00000320: 0090 d03c 384d b03d d48d aa3c a02e 823b
00000330: 9f87 ef3a ee9b a4bc 4896 41bd f62d 113d
00000340: 87b9 ca3b a515 853d ce0d cebc f8d0 963d
00000350: 0eb7 01bd 4946 693d d56b 8bbc fe10 ca3d
00000360: 90ac e0bb 903e 47bc d8a4 213d 724a 753d
00000370: 7e24 87bb 2084 45bb e07b 2fbd 68fe 60bd
00000380: 3329 91bc 9a66 0d3d 2ef1 b83d 53a0 a13d
00000390: 42e0 493d 1f5a 843c a045 923b 2fee 683c
000003a0: 9cf3 c53c a896 b7bc 903c b0bb 0e70 0ebc
000003b0: 6f84 c73d 2a2e 55bd 60b2 82bc 9cb7 fcbc
000003c0: 3b90 d93c 42d1 44bd d254 203c 5bb5 b23c
000003d0: 789e 113d 0c7b 4c3c 2a37 7bbd e7e5 683d
000003e0: 11b1 a6bc d63a 683d 3047 a9bc 979a bb3c
000003f0: aa77 0c3d 52df c73d b232 963d c45f 92bc

network.3.bias f4 [256]
0.022957046 0.025166431 -0.011298975 0.09331521 -0.052841265 0.18662405 -0.053223543 0.01395314
0.03395142 0.09070205 0.07531537 0.07027136 0.07757104 -0.06351073 0.0989106 0.24886449
0.059240244 -0.031585965 0.02640161 0.082291 0.09638886 0.078971 -0.0016564297 0.06315896
0.06753233 0.045952335 0.06961786 0.06794869 0.036959648 0.06964821 -0.025136068 -0.015286192
0.013748005 0.07500718 0.09683727 -0.042796582 0.06978694 0.04524292 0.08329848 0.1318179
-0.0112915365 0.065915324 0.05830791 -0.021107703 0.0780846 -2.94466e-05 0.08846353 -0.0070458055
0.008572753 0.043532643 0.08613239 0.03826253 0.022693057 0.042686626 0.011230231 0.07013686
0.09252908 -0.026393583 0.050803453 0.05720822 0.01584062 0.042494178 0.09580484 0.07457606
0.012955339 0.08571057 0.039078172 0.07152102 0.032930806 -0.03174002 0.08671553 0.054922707
0.20793705 -0.027750043 0.018596955 0.02734505 0.06976076 0.07958345 0.02587774 0.04055808
0.022778975 0.17173657 0.05543518 0.15898849 0.082640804 -0.03697198 0.05163478 0.0531589
0.022001043 -0.018449403 -0.061360024 0.10141922 -0.01803952 0.041975267 0.060706433 0.08376889
0.0655761 0.090820335 0.07663222 -0.017784951 -0.0066108024 0.10065576 0.05830508 0.04215235
0.057533648 0.079988636 0.06793272 0.042575367 -0.020984663 0.112925515 -0.03741655 0.08102361
0.07939446 -0.062641405 0.06453632 0.018086417 0.06615365 0.09358853 0.055545058 -0.028044589
0.036548257 -0.042161047 -0.027568348 0.080534495 0.086006016 0.01306892 0.0013221231 0.048728477
-0.015319869 0.070030674 0.070914 0.08800825 0.060382877 0.07278622 0.080102354 0.0665725
0.0594668 0.0711336 0.041444305 0.022779346 0.08354067 0.05135996 0.055706657 0.0067629907
0.07408231 -0.0013304002 -0.016703986 0.088455245 0.06772881 0.032209273 0.0050878846 0.02998415
0.024025364 -0.008844361 0.010456166 0.07556888 0.10249735 -0.011861447 -0.029941956 0.040623344
-0.032693755 0.08017194 0.04570118 -0.029930716 -0.0016444599 0.03372047 -0.012332041 0.09323101
-0.0060195704 -0.048953857 0.09362077 -0.02395893 -0.023311164 0.02153511 -0.016597874 0.0034809406
0.028178276 0.013472166 0.045710195 -0.015545055 -0.008129357 0.06832832 0.25449345 0.085872464
0.005282608 0.076817565 0.028377684 0.07333678 0.018090503 -0.042638253 0.007364908 0.0645339
0.014974492 0.029092766 0.087480865 0.056427043 0.026892897 0.034346752 0.015109839 0.09983562
0.021593973 -0.0065357457 0.098356925 -0.05266416 0.04975388 0.06536565 0.0725507 0.049977437
0.08012348 -0.020542545 0.060340207 0.03278344 0.06041493 0.07864214 -0.031177526 0.067212544
0.04194444 0.07032562 -0.02210669 0.06534991 -0.005077783 0.07867654 0.024960719 0.06616731
0.09134162 0.004459317 0.0003805007 0.076399505 -0.004589008 -0.034979723 -0.059706908 0.07255717
0.03817898 0.05251374 -0.039596606 0.07653098 0.037285816 0.07930641 0.0831502 0.010040319
-0.0089049395 0.120729074 0.033774823 -0.004588907 0.059033748 -0.04701079 0.0837874 -0.053102616
0.022662483 0.20552096 0.088589124 0.091394745 0.041866556 -0.037208524 0.056844607 0.027661737
00000000: 6a10 bc3c d529 ce3c 561f 39bc 0b1c bf3d
00000010: 1570 58bd 601a 3f3e ee00 5abd b69b 643c
00000020: a510 0b3d ffc1 b93d f23e 9a3d 6eea 8f3d
00000030: 91dd 9e3d ea11 82bd a491 ca3d 55d6 7e3e
00000040: e6a5 723d 4960 01bd 3048 d83c 2f88 a83d
00000050: 8667 c53d 8cbb a13d 8f1c d9ba 7c59 813d
00000060: 644e 8a3d 8438 3c3d cf93 8e3d af28 8b3d
00000070: 0063 173d b9a3 8e3d 28ea cdbc f072 7abc
00000080: 503f 613c 5d9d 993d 9e52 c63d 784b 2fbd
00000090: 75ec 8e3d a450 393d 6598 aa3d 46fb 063e
000000a0: 2300 39bc 9dfe 863d 46d4 6e3d 10ea acbc
000000b0: d2ea 9f3d 1804 f7b7 5e2c b53d 80e0 e6bb
000000c0: bb74 0c3c 494f 323d 2e66 b03d 2cb9 1c3d
000000d0: cae6 b93c 2cd8 2e3d 01ff 373c eaa3 8f3d
000000e0: e37f bd3d 5b37 d8bc 4817 503d 2b53 6a3d
000000f0: 30c4 813c 600e 2e3d 5435 c43d 55bb 983d
00000100: a142 543c 0689 af3d 6f10 203d 9d79 923d
00000110: 74e2 063d d301 02bd e997 b13d a2f6 603d
00000120: 73ed 543e 0f54 e3bc a458 983c ba02 e03c
00000130: bbde 8e3d a6fc a23d 8efd d33c 3b20 263d
00000140: f99a ba3c b6db 2f3e 0010 633d e1cd 223e
00000150: 953f a93d ee6f 17bd fe7e 533d 26bd 593d
00000160: 883b b43c 3423 97bc a654 7bbd e1b4 cf3d
00000170: 9ec7 93bc 42ee 2b3d 4fa7 783d 068f ab3d
00000180: c34c 863d 0300 ba3d 5af1 9c3d bfb1 91bc
00000190: 6e9f d8bb 9b24 ce3d 4fd1 6e3d f1a7 2c3d
000001a0: 67a8 6b3d 15d1 a33d 4f20 8b3d 8263 2e3d
000001b0: 07e8 abbc 7e45 e73d 1942 19bd b5ef a53d
000001c0: 9099 a23d 234a 80bd 9e2b 843d f729 943c
000001d0: 917b 873d 58ab bf3d 3783 633d c4bd e5bc
000001e0: a0b3 153d 10b1 2cbd 04d7 e1bc 45ef a43d
000001f0: ec23 b03d 061f 563c 174b ad3a 8397 473d
00000200: 3000 7bbc 3e6c 8f3d 5c3b 913d ab3d b43d
00000210: 0954 773d f110 953d b40c a43d 2a57 883d
00000220: 7693 733d 7eae 913d 81c1 293d c09b ba3c
00000230: 5f17 ab3d d25e 523d aa2c 643d 149c dd3b
00000240: 77b8 973d d360 aeba ccd6 88bc 0628 b53d
00000250: 67b5 8a3d dfed 033d 45b8 a63b 52a1 f53c
00000260: d7d0 c43c f0e7 10bc 5750 2b3c dbc3 9a3d
00000270: 21ea d13d 8456 42bc d548 f5bc aa64 263d
00000280: e3e9 05bd 3031 a43d 2931 3b3d 4331 f5bc
00000290: eb8a d7ba 7a1e 0a3d 540c 4abc e6ef be3d
000002a0: d13f c5bb d783 48bd 3fbc bf3d 8545 c4bc
000002b0: 0ef7 bebc 666a b03c 44f8 87bc 7e20 643b
000002c0: 21d6 e63c 5cba 5c3c 9d3a 3b3d b0b0 7ebc
000002d0: ff30 05bc b8ef 8b3d f74c 823e e7dd af3d
000002e0: ba19 ad3b 8752 9d3d 5178 e83c 9831 963d
000002f0: 8932 943c 73a5 2ebd 5355 f13b 592a 843d
00000300: 9257 753c f453 ee3c 2b29 b33d 0b20 673d
00000310: 7e4e dc3c 2eaf 0c3d 428f 773c 9e76 cc3d
00000320: d8e5 b03c cf29 d6bb 5b6f c93d 60b6 57bd
00000330: b9ca 4b3d 6dde 853d 7695 943d 24b5 4c3d
00000340: c717 a43d d748 a8bc 4b27 773d ee47 063d
00000350: a575 773d 210f a13d 0368 ffbc bba6 893d
00000360: efcd 2b3d e106 903d 1719 b5bc 2cd6 853d
00000370: 8863 a6bb 2a21 a13d 6c7a cc3c ba82 873d
00000380: 5111 bb3d 761f 923b f17d c739 5877 9c3d
00000390: 645f 96bb e646 0fbd 3b8f 74bd db98 943d
000003a0: 9061 1c3d a618 573d 0d30 22bd 46bc 9c3d
000003b0: 03b9 183d 666b a23d a74a aa3d 2680 243c
000003c0: 06e6 11bc ce40 f73d 7857 0a3d 8b5e 96bb
000003d0: 5fcd 713d 638e 40bd ba98 ab3d 2182 59bd
000003e0: aca6 b93c 1674 523e 376e b53d 2b2d bb3d
000003f0: 447c 2b3d f767 18bd e4d5 683d de9a e23c

network.6.weight f4 [231, 256]
-0.016218465 -0.084961064 -0.03309403 0.0068015833 0.046896446 -0.20311016 -0.028058166 0.0007445809
-0.022059998 -0.06406852 -0.005426245 -0.046918303 -0.055084955 0.030722043 -0.042510368 -0.29549903
-0.0576121 -0.010501973 -0.047792405 -0.056296047 -0.067418374 -0.04490931 -0.09863653 -0.1000569
-0.05921877 -0.028512167 -0.032806307 0.0010148261 -0.07851619 -0.091368906 0.05010876 -0.0071518496
-0.013182028 -0.0151404375 -0.01970399 -0.03690456 0.016702361 -0.093756415 -0.095109 -0.15688258
-0.03281092 0.011612171 -0.06991305 0.050684158 -0.035889134 0.015156018 -0.0758015 -0.046746023
-0.030697556 0.009478869 -0.0033946545 -0.030290065 -0.10274847 -0.10078613 -0.010326144 -0.027732585
-0.066405654 -0.051878553 -0.05772852 -0.09229995 -0.055266265 -0.03731222 -0.018739013 -0.02340117
0.017432673 -0.011813639 -0.022752287 -0.22181723 -0.014113312 -0.0096134795 -0.04945213 -0.08858257
-0.2720898 0.056872405 0.014896684 -0.041906416 -0.072355285 -0.035521783 0.018134352 -0.07088968
-0.047171406 -0.19572023 -0.0809195 -0.2080726 -0.081155725 -0.01243531 -0.0008698282 -0.063663274
-0.095956415 0.035732813 -0.035032842 0.0014987943 -0.014432302 -0.002657423 -0.037569568 -0.021819526
0.0032013552 -0.02997881 -0.0013704126 0.01739291 0.013537049 -0.12686986 -0.04381758 0.0027149848
-0.007674683 -0.022826033 -0.0055826134 0.006446793 -0.10412412 -0.13757849 0.027864197 -0.04695417
-0.06997512 0.025797015 -0.034829047 -0.0033159931 -0.09109442 -0.037828702 -0.070519306 0.05119823
-0.067231394 0.04518711 -0.028351277 0.002653154 -0.09262238 -0.033867735 -0.034300007 -0.041567035
-0.09973727 -0.050648965 -0.0218645 -0.018747969 -0.07828623 -0.04974178 -0.076946415 -0.023345742
-0.035387464 -0.023373213 -0.08495246 0.011274164 -0.0023225236 -0.09038838 -0.040515788 -0.09325527
-0.050628364 -0.02005005 0.036473095 0.0021746655 -0.019998664 -0.064048685 -0.09094804 -0.120940596
-0.01741143 0.044400383 0.009641721 0.010927463 -0.10317705 0.0038048709 -0.105788216 -0.0048431177
0.053828042 -0.15195525 -0.077929035 -0.0012407787 -0.109262474 -0.06641417 0.0060324026 -0.0949828
0.00398711 0.060072802 0.010034104 -0.0018543373 -0.09002083 -0.071274325 -0.07117263 0.0025422727
-0.010334584 -0.07914008 -0.09685434 0.040476114 -0.09054753 -0.12850581 -0.3189274 -0.034097232
-0.04624803 -0.047386363 -0.06768224 -0.05641195 -0.0068176957 -0.05163331 -0.04392216 -0.00051305053
-0.07711054 -0.04625983 -0.096798874 0.0130994525 -0.0842996 0.013157434 -0.11097866 0.005203753
-0.04349136 -0.03616469 -0.011438589 -0.045760855 -0.019164741 0.014004902 -0.06954112 -0.002294039
-0.029462773 -0.048611563 -0.10300556 -0.09648199 -0.07886844 -0.09101905 0.021312594 -0.0086055705
-0.016855925 -0.06842753 0.04938188 -0.09327958 -0.0056604403 -0.026071673 -0.0137643935 -0.029601054
-0.012232357 -0.08922041 -0.04853652 -0.003644998 -0.05977139 0.021444635 0.013319142 -0.073205404
-0.03218484 0.013186741 0.017324964 -0.10055161 -0.0492548 -0.053402647 0.014136786 -0.0072066276
-0.017237138 -0.21044026 -0.0027800673 -0.008711266 0.018056741 -0.034373336 0.008135147 0.015916925
-0.033920627 -0.26907912 -0.04387561 -0.0037728394 -0.1059351 -0.045719378 -0.028135698 -0.025886642
00000000: 96dc 84bc 1100 aebd 9b8d 07bd d1df de3b
00000010: 7d16 403d 1cfc 4fbe 3dda e5bc fa2f 433a
00000020: 2bb7 b4bc 5b36 83bd a4ce b1bb 682d 40bd
00000030: c3a0 61bd cbac fb3c 5a1f 2ebd a64b 97be
00000040: aafa 6bbd 7810 2cbc f8c1 43bd af96 66bd
00000050: a512 8abd d3f2 37bd f301 cabd a2ea ccbd
00000060: 628f 72bd 5992 e9bc e85f 06bd ea03 853a
00000070: 19cd a0bd 9f1f bbbd d83e 4d3d 105a eabb
00000080: 6ff9 57bc 990f 78bc 436a a1bc 3c29 17bd
00000090: 64d3 883c 5d03 c0bd 82c8 c2bd d4a5 20be
000000a0: be64 06bd fa40 3e3c 932e 8fbd 319a 4f3d
000000b0: 7c00 13bd f250 783c d13d 9bbd c278 3fbd
000000c0: 7179 fbbc 424d 1b3c da78 5ebb df22 f8bc
000000d0: ca6d d2bd f568 cebd fd2e 29bc 722f e3bc
000000e0: b0ff 87bd 9b7e 54bd be74 6cbd c207 bdbd
000000f0: e15e 62bd b3d4 18bd 8f82 99bc cfb3 bfbc
00000100: f7ce 8e3c fe8d 41bc 0163 babc 0e24 63be
00000110: 853b 67bc db81 1dbc 518e 4abd c76a b5bd
00000120: 5b4f 8bbe 0af3 683d 3911 743c 10a6 2bbd
00000130: 022f 94bd 4a7f 11bd 7e8e 943c 9c2e 91bd
00000140: ce36 41bd e26a 48be 1fb9 a5bd fc10 55be
00000150: f934 a6bd 78bd 4bbc 2f05 64ba e461 82bd
00000160: cc84 c4bd 925c 123d 997e 0fbd 3173 c43a
00000170: 7675 6cbc 2928 2ebb 8ce2 19bd ddbe b2bc
00000180: d4cd 513b 1f96 f5bc 6b9f b3ba 937b 8e3c
00000190: 80ca 5d3c 2cea 01be 107a 33bd e3ed 313b
000001a0: e87b fbbb a9fd babc 5bee b6bb 9f3f d33b
000001b0: 073f d5bd 60e1 0cbe 7543 e43c 0453 40bd
000001c0: 1e4f 8fbd 4354 d33c e7a8 0ebd 2251 59bb
000001d0: b68f babd 45f2 1abd 6d6c 90bd 3cb5 513d
000001e0: 9db0 89bd 1e16 393d f040 e8bc 8ae0 2d3b
000001f0: cdb0 bdbd e5b8 0abd 2a7e 0cbd 3242 2abd
00000200: 0e43 ccbd 4a75 4fbd 2e1d b3bc 5795 99bc
00000210: 8854 a0bd 09be 4bbd 1596 9dbd 923f bfbc
00000220: 72f2 10bd 2e79 bfbc 8efb adbd 45b7 383c
00000230: 7b35 18bb 8b1d b9bd e2f3 25bd 9efc bebd
00000240: b05f 4fbd 0140 a4bc d064 153d d584 0e3b
00000250: 3dd4 a3bc f52b 83bd f742 babd b4af f7bd
00000260: 6aa2 8ebc 2ddd 353d 4ff8 1d3c 1a09 333c
00000270: 7d4e d3bd 245b 793b 7ea7 d8bd 04b3 9ebb
00000280: cb7a 5c3d 289a 1bbe 4299 9fbd a0a1 a2ba
00000290: 01c5 dfbd 2704 88bd 76ab c53b 5886 c2bd
000002a0: 4ea6 823b e60e 763d 1566 243c 3c0d f3ba
000002b0: d75c b8bd 46f8 91bd f5c2 91bd 429c 263b
000002c0: 6352 29bc 3214 a2bd 915b c6bd 48ca 253d
000002d0: fc70 b9bd 0797 03be 744a a3be 8aa9 0bbd
000002e0: 936e 3dbd 3418 42bd fc9c 8abd 3810 67bd
000002f0: fa66 dfbb 737d 53bd b9e7 33bd 3d7e 06ba
00000300: 21ec 9dbd f37a 3dbd 7d3e c6bd 169f 563c
00000310: 45a5 acbd 4792 573c c848 e3bd 3e84 aa3b
00000320: ff23 32bd 6d21 14bd eb68 3bbc bc6f 3bbd
00000330: 60ff 9cbc d174 653c 936b 8ebd 9657 16bb
00000340: ea5b f1bc eb1c 47bd 94f4 d2bd 5998 c5bd
00000350: c785 a1bd 3268 babd c097 ae3c 61fe 0cbc
00000360: 7015 8abc bc23 8cbd a744 4a3d 5d09 bfbd
00000370: 377b b9bb 4394 d5bc 0d84 61bc e97d f2bc
00000380: 396a 48bc 31b9 b6bd 3bce 46bd ebe0 6ebb
00000390: d8d2 74bd a9ac af3c 8838 5a3c b7ec 95bd
000003a0: 40d4 03bd 330d 583c 15ed 8d3c 01ee cdbd
000003b0: 67bf 49bd bcbc 5abd fa9d 673c 9325 ecbb
000003c0: e634 8dbc a77d 57be ca31 36bb b3b9 0ebc
000003d0: bbeb 933c 0ecb 0cbd 4849 053c 3664 823c
000003e0: 5bf0 0abd bdc4 89be e9b6 33bd be41 77bb
000003f0: 80f4 d8bd 3e44 3bbd d67c e6bc 3910 d4bc

network.6.bias f4 [231]
0.0063562887 -0.07889572 -0.05286966 0.0026180064 -0.0671957 -0.046418082 -0.06761729 -0.046771597
-0.08469725 -0.061143506 -0.021081587 -0.0036860574 0.014366977 -0.06918624 -0.03475508 -0.076241136
-0.03506558 -0.047506902 0.011987219 -0.06740553 -0.012636297 0.031606108 -0.04772381 -0.06509038
-0.055731643 0.0077912384 -0.027963744 -0.035053078 -0.07664197 0.0016133462 -0.03047696 0.023573974
-0.043619256 -0.07239888 -0.08143458 -0.029851947 -0.013053616 0.022872388 -0.014239159 0.031758998
-0.043904494 -0.026232198 -0.0026909558 -0.057618454 -0.066429414 -0.06354942 -0.017093165 0.021873036
-0.032328222 0.01753458 -0.07645415 -0.08528534 -0.011766343 -0.08046409 -0.04873711 -0.08719738
0.02085827 0.029389938 -0.0053481357 -0.015185334 0.030069923 0.01753208 0.0048766383 -0.0014039495
-0.0027593747 -0.046110965 -0.00292694 -0.07051387 -0.07340318 0.021924479 -0.034280665 -0.018102564
-0.040822938 -0.064606085 -0.05896313 -0.07617166 -0.050745007 -0.027663069 -0.039016463 -0.035844672
0.034530357 -0.034088943 0.02922334 -0.059898667 -0.04064625 0.015944086 -0.041609365 -0.021608997
-0.03918575 -0.056989085 -0.062242445 -0.055333 -0.04515148 -0.024857627 -0.05042232 -0.04356811
0.02890036 0.023226356 -0.044865463 0.013338215 -0.013146689 -0.02455267 -0.014936233 -0.024626354
0.032540478 -0.0025229424 -0.021561256 -0.037748717 0.008277124 0.026881577 0.007120924 0.029465148
-0.08824662 -0.045544766 -0.08332517 -0.018907484 0.012727222 -0.040758323 -0.07694873 -0.006862355
0.010693657 -0.02026248 0.004825196 -0.031692088 -0.068483375 -0.029770462 -0.045385957 -0.0720229
-0.056270897 -0.075498156 -0.071059756 0.02962444 -0.018748881 0.019319618 0.01451235 0.0009997276
0.01933362 0.010339552 -0.00078958564 -0.07195885 -0.047303535 -0.030669915 -0.077837884 -0.041995205
0.037292004 -0.06628052 -0.07791911 -0.055808395 -0.027262222 0.00495731 -0.033131745 -0.0655822
-0.07243435 -0.012321468 -0.018853774 0.007518947 0.0007847922 0.012193128 -0.067642055 0.027439404
0.017819358 -0.06980516 0.018196052 -0.032607395 0.021840174 -0.057285465 -0.08477766 -0.03062475
-0.026980285 0.005269153 0.028619919 -0.086036325 -0.033478517 -0.0445242 -0.085579224 -0.07159426
-0.08566811 0.021022325 -0.06095321 -0.009986029 -0.018668307 -0.02637855 0.0215466 0.025851768
-0.060184404 0.011731104 -0.08453665 -0.042732842 -0.047288086 -0.047876053 -0.054454982 0.012770912
0.017968684 -0.081352636 -0.0016209247 -0.017683733 -0.08908072 -0.075437196 -0.02916073 -0.08172937
0.024074385 -0.0046736943 -0.015669676 -0.07131392 -0.068708204 -0.037031814 0.027130932 -0.039369605
-0.05012879 0.002238798 -0.008670998 -0.015107737 -0.04420256 -0.035479072 -0.06852685 -0.02450272
0.011375328 -0.045001447 0.0042403666 -0.085901745 -0.012772087 -0.011867499 -0.0041052024 -0.07164064
-0.02705537 -0.073579386 -0.03524496 0.019864855 0.0036094645 -0.019567825 -0.08524137
00000000: 6a48 d03b 1494 a1bd db8d 58bd dc92 2b3b
00000010: e69d 89bd e320 3ebd ef7a 8abd 9393 3fbd
00000020: c075 adbd 9d71 7abd 4bb3 acbc c891 71bb
00000030: 7863 6b3c 84b1 8dbd 585b 0ebd 5024 9cbd
00000040: eda0 0fbd 9996 42bd 0a66 443c e90b 8abd
00000050: 7908 4fbc 6875 013d 0b7a 43bd 1b4e 85bd
00000060: dd46 64bd a54d ff3b 3914 e5bc d193 0fbd
00000070: 77f6 9cbd ea76 d33a d1aa f9bc 351e c13c
00000080: 1baa 32bd dd45 94bd 2cc7 a6bd 128c f4bc
00000090: d5de 55bc e05e bb3c 5d4b 69bc b915 023d
000000a0: 33d5 33bd e8e4 d6bc bf5a 30bb 5401 6cbd
000000b0: 250c 88bd 3326 82bd f706 8cbc 152f b33c
000000c0: 996a 04bd aea4 8f3c fe93 9cbd 15aa aebd
000000d0: 9fc7 40bc 5bca a4bd 90a0 47bd 8a94 b2bd
000000e0: f6de aa3c 2bc3 f03c 6a3f afbb e8cb 78bc
000000f0: 3355 f63c 709f 8f3c 35cc 9f3b ba04 b8ba
00000100: a0d6 34bb dade 3cbd e8d1 3fbb 9369 90bd
00000110: 6854 96bd f79a b33c e269 0cbd d44b 94bc
00000120: f435 27bd 3250 84bd 5383 71bd e3ff 9bbd
00000130: ffd9 4fbd a99d e2bc bacf 1fbd ddd1 12bd
00000140: b46f 0d3d d9a0 0bbd c965 ef3c 4e58 75bd
00000150: af7c 26bd 2c9d 823c 956e 2abd 5a05 b1bc
00000160: 3d81 20bd 636d 69bd eff1 7ebd dba4 62bd
00000170: c2f0 38bd 39a2 cbbc a287 4ebd 7974 32bd
00000180: 73c0 ec3c 3345 be3c d9c4 37bd 8788 5a3c
00000190: 3665 57bc ae22 c9bc 1ab7 74bc 35bd c9bc
000001a0: 2a49 053d f357 25bb 3ba1 b0bc 669e 1abd
000001b0: c69c 073c c136 dc3c a456 e93b e560 f13c
000001c0: a5ba b4bd 268d 3abd 63a6 aabd dee3 9abc
000001d0: d785 503c 33f2 26bd 4c97 9dbd 9bdd e0bb
000001e0: 7334 2f3c 80fd a5bc ae1c 9e3b 90cf 01bd
000001f0: 0341 8cbd 2fe1 f3bc a0e6 39bd be80 93bd
00000200: 507c 66bd c79e 9abd c787 91bd f4ae f23c
00000210: 4197 99bc 2d44 9e3c 35c5 6d3c 4b09 833a
00000220: 8a61 9e3c 3967 293c 32fc 4eba 295f 93bd
00000230: 5ac1 41bd 793f fbbc 7869 9fbd 2a03 2cbd
00000240: 80bf 183d 15be 87bd 0e94 9fbd 5897 64bd
00000250: 0655 dfbc ee70 a23b 27b5 07bd f64f 86bd
00000260: 7658 94bd fcdf 49bc 3b73 9abc 8061 f63b
00000270: 83ba 4d3a afc5 473c eb87 8abd 9ac8 e03c
00000280: e7f9 913c 02f6 8ebd e30f 953c 558f 05bd
00000290: 2aea b23c 2aa4 6abd e99f adbd c1e0 fabc
000002a0: c205 ddbc dca8 ac3b 5274 ea3c d033 b0bd
000002b0: c520 09bd 025f 36bd 2944 afbd 03a0 92bd
000002c0: c372 afbd 0337 ac3c 13aa 79bd 719c 23bc
000002d0: 47ee 98bc d417 d8bc 7f82 b03c 16c7 d33c
000002e0: ec83 76bd d133 403c 8d21 adbd a208 2fbd
000002f0: 27b1 41bd ae19 44bd 300c 5fbd 163d 513c
00000300: 1033 933c 369c a6bd 3575 d4ba 7add 90bc
00000310: f46f b6bd d17e 9abd 7ce2 eebc ba61 a7bd
00000320: a537 c53c ca25 99bb b15d 80bc 080d 92bd
00000330: e3b6 8cbd acae 17bd b041 de3c 0642 21bd
00000340: d953 4dbd ccb8 123b cd10 0ebc 7186 77bc
00000350: be0d 35bd 8152 11bd ce57 8cbd eeb9 c8bc
00000360: 955f 3a3c 7053 38bd c6f2 8a3b 41ed afbd
00000370: 0442 51bc e66f 42bc ef84 86bb 54b8 92bd
00000380: 39a3 ddbc cab0 96bd 055d 10bd 9fbb a23c
00000390: c48c 6c3b b44c a0bc 0793 aebd

network.0.weight f4 [256, 24]
-0.17810456 0.19106407 0.0725655 0.06458338 -0.20262192 0.16601418 0.20143302 -0.04742007
-0.06398325 -0.16103087 -0.11258787 0.05858644 -0.19719753 -0.02188961 0.015315745 -0.058187153
0.10858988 0.00795333 -0.006011955 -0.08145114 -0.0058452464 -0.083339766 -0.063436106 0.15681995
-0.14347075 -0.11809301 0.13310507 0.11906693 -0.07036354 -0.0661069 0.09822619 -0.13167876
-0.19183022 0.10188369 0.14997673 -0.047777697 -0.07820002 0.0079704365 0.031191647 0.048475314
0.010572246 0.028246759 0.15094931 -0.00044199362 0.16568355 -0.18380219 0.031681895 0.1526952
0.1983075 -0.1545807 0.0501717 0.19829689 0.16129377 -0.08032572 -0.15372482 0.110325195
0.16083944 0.08485521 -0.012610031 -0.14996436 0.13756919 -0.052371107 -0.18439114 0.1372029
-0.014658522 0.19071294 0.013675838 0.1831945 0.03277138 -0.15292202 -0.07659313 0.075223476
0.014138832 -0.13421965 -0.021854568 -0.19214526 -0.015409502 -0.19290383 0.071858756 -0.1147618
0.01942689 0.1836304 0.032031346 0.15769738 -0.01613133 -0.005763145 -0.0008950103 -0.05104822
0.121405475 0.06754484 -0.12875947 -0.14009963 0.03161763 0.12452632 -0.17507981 -0.103384785
0.19477731 -0.038354237 0.06910885 0.0149575565 0.056372434 0.019581577 0.08772629 -0.15481646
0.10851875 0.18054797 0.1174243 -0.08893778 -0.079458766 0.10319331 -0.1859383 0.11580388
-0.071624696 0.0302314 -0.13715458 0.04516915 -0.18749754 -0.19124351 -0.13711525 0.044727594
0.0071573327 0.027331162 -0.15084322 -0.14230831 -0.06530027 -0.13873324 0.093739726 0.0075773043
0.019468596 0.07977568 0.17471975 -0.017219525 0.099083245 -0.20343897 -0.15572 -0.0026665374
-0.0126663875 0.029942099 -0.057576455 0.08862607 0.11533962 0.07749067 0.07045316 0.10938877
-0.17492707 0.154546 0.10611713 -0.08647333 -0.049368694 0.120572515 -0.04291925 0.10188858
-0.00815413 0.03403908 -0.010828259 -0.08128604 0.16986388 0.13494335 -0.11052826 -0.040091965
-0.061603893 -0.101237126 0.15178818 0.16974725 -0.111332655 0.032751523 -0.041435685 -0.09482527
-0.045848273 -0.14592154 -0.1019287 0.11088823 0.18150225 -0.060314436 0.16171542 -0.17136241
0.080844656 0.023379501 0.110028304 -0.19584441 0.0674461 0.05438687 -0.0094069885 -0.09049787
-0.19977838 0.031401258 -0.17624098 -0.1350664 -0.06442444 -0.049652155 -0.13274667 -0.20364827
0.1945808 -0.18326493 -0.1872892 -0.054004032 -0.05128148 0.14289835 -0.0867913 0.17757072
-0.13386427 0.146742 0.07400991 0.027639663 0.15734264 -0.12142008 0.065475814 0.029230563
-0.03156439 0.13512847 0.14773066 0.17849945 0.034352764 -0.020109298 0.18335907 0.21331038
0.11136676 0.068217345 0.082117006 0.027122917 -0.13394709 0.1787648 0.025028046 0.09956775
-0.07480642 0.030207723 -0.04370612 0.12566291 0.17943563 -0.07919013 -0.073800646 0.018094582
-0.060878973 -0.032409295 -0.0929677 -0.1944003 0.02385488 -0.035293374 0.0928398 -0.15260857
-0.019443607 -0.12464332 -0.14982118 -0.018904766 -0.14694409 0.10367891 -0.0230701 -0.13332106
0.11245294 -0.124200985 -0.028839815 -0.14370231 0.020585138 -0.16740164 0.07980963 0.068877585
00000000: 0b61 36be 4da6 433e 399d 943d 4b44 843d
00000010: 1f7c 4fbe 9fff 293e 7544 4e3e 8c3b 42bd
00000020: a609 83bd 47e5 24be 7894 e6bd 56f8 6f3d
00000030: 26ee 49be d751 b3bc e4ee 7a3c a755 6ebd
00000040: 5f64 de3d af4e 023c efff c4bb dbcf a6bd
00000050: 7b89 bfbb 0aae aabd caea 81bd 6995 203e
00000060: ffe9 12be bfda f1bd b24c 083e 5dd9 f33d
00000070: c21a 90bd 0e63 87bd d02a c93d ccd6 06be
00000080: 246f 44be 65a8 d03d 8093 193e 8cb2 43bd
00000090: 5527 a0bd 6f96 023c a085 ff3c 0d8e 463d
000000a0: 3737 2d3c bf65 e73c 7592 1a3e 61bb e7b9
000000b0: f3a8 293e a436 3cbe e0c4 013d 215c 1c3e
000000c0: 1f11 4b3e 674a 1ebe d780 4d3d 570e 4b3e
000000d0: 322a 253e d081 a4bd 0a6a 1dbe 2df2 e13d
000000e0: 18b3 243e 91c8 ad3d 4e9a 4ebc 4290 19be
000000f0: f0de 0c3e 1683 56bd 08d1 3cbe eb7e 0c3e
00000100: 4c2a 70bc 414a 433e 9f10 603c 5797 3b3e
00000110: 483b 063d 9797 1cbe dcdc 9cbd c40e 9a3d
00000120: 8fa6 673c e070 09be 5a08 b3bc bac1 44be
00000130: 2378 7cbc 9588 45be af2a 933d 3c08 ebbd
00000140: 2425 9f3c 9c09 3c3e 4d33 033d 6c7b 213e
00000150: da25 84bc c4d8 bcbb 209f 6aba f017 51bd
00000160: 6fa3 f83d f354 8a3d 86d9 03be 4776 0fbe
00000170: 7d81 013d a807 ff3d 1f48 33be 67bb d3bd
00000180: b473 473e 5519 1dbd f188 8d3d 8a10 753c
00000190: c8e6 663d 8b69 a03c d7a9 b33d 3588 1ebe
000001a0: 143f de3d 91e1 383e 277c f03d 0325 b6bd
000001b0: 47bb a2bd 0457 d33d 9c66 3ebe 962a ed3d
000001c0: f8af 92bd d7a7 f73c 4072 0cbe 4903 393d
000001d0: 5bff 3fbe 57d5 43be f167 0cbe 4834 373d
000001e0: 0f88 ea3b 9ae5 df3c a576 1abe 45b9 11be
000001f0: 26bc 85bd 1610 0ebe 9dfa bf3d 094b f83b
00000200: 9b7c 9f3c 6f61 a33d bce9 323e f60f 8dbc
00000210: 28ec ca3d 4e52 50be 1075 1fbe 13c1 2ebb
00000220: ae86 4fbc 2249 f53c 4ad5 6bbd 9681 b53d
00000230: 2e37 ec3d 6eb3 9e3d bf49 903d 3807 e03d
00000240: 1520 33be 4e41 1e3e f053 d93d ee18 b1bd
00000250: d436 4abd b9ee f63d 18cc 2fbd f6aa d03d
00000260: e698 05bc 906c 0b3d 0369 31bc 4c79 a6bd
00000270: ccf0 2d3e 972e 0a3e a45c e2bd 7937 24bd
00000280: 5d54 7cbd 6955 cfbd 5c6e 1b3e 39d2 2d3e
00000290: 6002 e4bd 7626 063d 77b8 29bd c033 c2bd
000002a0: 66cb 3bbd 756c 15be ffbf d0bd 5e19 e33d
000002b0: badb 393e 450c 77bd ba98 253e a179 2fbe
000002c0: e291 a53d 5e86 bf3c 8556 e13d 708b 48be
000002d0: 2e21 8a3d c4c4 5e3d c51f 1abc f356 b9bd
000002e0: b492 4cbe 9b9e 003d 8478 34be d94e 0abe
000002f0: f6f0 83bd 0f60 4bbd beee 07be 2c89 50be
00000300: 3040 473e cda9 3bbe bdc8 3fbe 5533 5dbd
00000310: 870c 52bd f253 123e a3bf b1bd 19d5 353e
00000320: b713 09be 8943 163e 8292 973d 936c e23c
00000330: 6e1e 213e 17ab f8bd 2f18 863d ef74 ef3c
00000340: a949 01bd 1e5f 0a3e b546 173e 8fc8 363e
00000350: 7cb5 0c3d 41bc a4bc 7bc2 3b3e 096e 5a3e
00000360: 4214 e43d 89b5 8b3d f62c a83d e130 de3c
00000370: 6d29 09be 1f0e 373e 9e07 cd3c 2dea cb3d
00000380: 1c34 99bd 3076 f73c 3005 33bd c7ad 003e
00000390: f9bd 373e 6f2e a2bd cb24 97bd 173b 943c
000003a0: 3b5c 79bd 9cbf 04bd d965 bebd df10 47be
000003b0: 4f6b c33c c98f 10bd cb22 be3d 6c45 1cbe
000003c0: 3348 9fbc ff44 ffbd b96a 19be 2bde 9abc
000003d0: 8378 16be 9c55 d43d 82fd bcbc 5185 08be
000003e0: ba4d e63d 165d febd 7a41 ecbc b326 13be
000003f0: 2aa2 a83c 566b 2bbe 3b73 a33d b10f 8d3d

network.0.bias f4 [256]
-0.0096146045 0.0033457614 -0.10446662 0.075480595 -0.17589355 0.17724328 -0.037095487 -0.029995779
0.034853116 0.06570605 0.043204363 -0.17643675 -0.043943264 -0.12842737 -0.15179051 -0.12238914
0.04194693 0.14214039 -0.0071671875 0.020441864 0.15722923 0.079452604 -0.09065251 0.09613949
-0.15311794 0.048404366 0.058436137 -0.09870619 0.064041376 -0.116759285 0.06050276 -0.080310635
-0.1636311 -0.089813545 0.21075565 -0.16733733 -0.10043935 0.043179374 0.13192917 -0.0277944
-0.07770157 -0.08426816 -0.09194725 0.1057182 -0.10796937 -0.064219676 -0.024138998 -0.18957654
-0.12190543 0.055846643 -0.048532598 0.042583946 0.06919578 -0.11836435 0.08587339 -0.13344443
0.16698922 0.090993695 0.13638553 -0.010636465 -0.17532122 0.17617013 0.18492517 0.12947464
-0.029871117 -0.1492671 0.19058336 0.097187474 -0.15467554 0.11417085 -0.068308644 0.0060355416
-0.17338109 0.21706039 -0.09973759 -0.04170647 0.2107211 -0.1136008 -0.1835995 -0.16710539
0.21571432 0.011025811 -0.079910666 -0.10010897 0.090995796 -0.047856975 0.059549447 0.1840801
0.09748265 0.18661018 -0.12963761 0.033914723 0.20644197 0.13273032 -0.12509565 0.047810286
-0.15647408 -0.0940851 -0.10281383 0.18760209 0.18959336 -0.035406135 0.06262446 0.15610145
0.095648 0.04862882 0.04345078 -0.19935581 -0.072544694 -0.010566552 -0.07077156 -0.018928124
0.17771931 0.15139532 0.020879429 0.22066446 0.17846194 -0.03240319 -0.098262474 0.21179244
0.121915 0.04447585 -0.17637298 -0.102399364 0.14634365 0.09186176 0.11851903 0.18099009
-0.093684494 -0.17871553 -0.1343733 0.07315945 0.041084077 0.085152395 0.044724602 -0.1831007
-0.08798096 -0.0067971484 -0.10004716 -0.12600161 -0.064920425 0.041302387 -0.201419 0.14205012
0.07037014 -0.16618483 -0.14079307 -0.0059676436 0.06451946 -0.18877843 0.09439286 -0.20231916
0.04108521 -0.050648514 -0.024515266 0.078980766 0.14278316 -0.15733145 -0.09921691 -0.17328191
-0.15679953 -0.11510639 0.14765203 0.17161947 -0.0667818 0.08164242 0.18283476 0.036531106
-0.050978553 0.08930032 0.15857849 0.039136082 -0.162462 -0.1427251 -0.039389044 -0.10327759
0.1605947 -0.1606267 -0.08384009 0.033939425 -0.14182697 -0.13067958 -0.12810858 -0.135579
-0.14758107 0.082714014 0.13067243 -0.16305126 -0.031540442 -0.120396346 -0.066549994 0.21229105
-0.10558469 -0.19270685 -0.0019183068 0.16811076 0.07594269 0.10469573 0.052958377 -0.022714369
0.04845455 0.208719 -0.10474569 -0.1529064 0.20688306 0.06091604 -0.08938576 -0.04961658
0.16590658 -0.059058197 -0.06503273 -0.036706444 -0.073518835 0.20109963 -0.039467882 -0.124310315
-0.14808764 0.0068722153 -0.00029107727 -0.0130622685 -0.088012986 -0.07344892 -0.13361058 -0.12505797
-0.16599838 0.10538142 0.064336345 0.045147195 -0.034841307 -0.116542354 0.13113081 0.0639061
-0.08300352 -0.026152182 0.056688495 0.06644707 0.12268647 0.20677221 0.038445156 -0.073430456
-0.12651612 -0.017943032 0.1670108 0.21128403 0.15637295 0.055218145 0.068378516 0.03380585
-0.2038735 -0.08520096 -0.034181528 -0.14341742 0.21454525 -0.0801848 0.049436215 0.028060129
00000000: 9386 1dbc 9044 5b3b 98f2 d5bd 9295 9a3d
00000010: 701d 34be 437f 353e 70f1 17bd b5b9 f5bc
00000020: 24c2 0e3d e590 863d 0ff7 303d d6ab 34be
00000030: dafd 33bd 7782 03be f96e 1bbe 28a7 fabd
00000040: 8bd0 2b3d 408d 113e bada eabb b275 a73c
00000050: b300 213e 0cb8 a23d 06a8 b9bd c8e4 c43d
00000060: f3ca 1cbe a843 463d bb5a 6f3d 7926 cabd
00000070: 2028 833d 7e1f efbd bed1 773d e779 a4bd
00000080: e98e 27be 2af0 b7bd 54d0 573e 7a5a 2bbe
00000090: 25b3 cdbd dbdc 303d 7118 073e 15b1 e3bc
000000a0: 0022 9fbd c994 acbd d74e bcbd c982 d83d
000000b0: 0c1f ddbd 9b85 83bd 26bf c5bc 5a20 42be
000000c0: 8ea9 f9bd 73bf 643d 1eca 46bd 816c 2e3d
000000d0: 84b6 8d3d 0269 f2bd 63de af3d a8a5 08be
000000e0: 39ff 2a3e e75a ba3d a6a8 0b3e 9144 2ebc
000000f0: 6887 33be f165 343e 065d 3d3e 0095 043e
00000100: 46b4 f4bc 7ad9 18be 4928 433e 3a0a c73d
00000110: 4463 1ebe 68d2 e93d 67e5 8bbd cbc5 c53b
00000120: d08a 31be 1445 5e3e 3943 ccbd 67d4 2abd
00000130: 46c7 573e 89a7 e8bd 8201 3cbe ad1d 2bbe
00000140: 37e4 5c3e 9aa5 343c 34a8 a3bd ef05 cdbd
00000150: 015c ba3d ad05 44bd 1fea 733d 7e7f 3c3e
00000160: fca4 c73d bd16 3f3e b9bf 04be 2aea 0a3d
00000170: 8665 533e 75ea 073e 1319 00be b8d4 433d
00000180: be3a 20be b0af c0bd 0f90 d2bd c31a 403e
00000190: c324 423e 0606 11bd 4141 803d 0fd9 1f3e
000001a0: 19e3 c33d 032f 473d 72f9 313d ee23 4cbe
000001b0: 5092 94bd 551f 2dbc aef0 90bd 270f 9bbc
000001c0: 0dfc 353e 6007 1b3e 560b ab3c ddf5 613e
000001d0: babe 363e 35b9 04bd d63d c9bd 1ee0 583e
000001e0: 92ae f93d 4f2c 363d 1e9b 34be c2b6 d1bd
000001f0: 1cdb 153e 0522 bc3d 1bba f23d 7755 393e
00000200: a8dd bfbd 3401 37be 2899 09be 9fd4 953d
00000210: c747 283d 6164 ae3d 2531 373d c07e 3bbe
00000220: 5d2f b4bd 9dba debb 87e5 ccbd 9106 01be
00000230: 00f5 84bd b12c 293d c840 4ebe 9675 113e
00000240: 381e 903d 5b2c 2abe 0f2c 10be 398c c3bb
00000250: c722 843d 224f 41be 0b51 c13d c12c 4fbe
00000260: f748 283d d174 4fbd 3dd4 c8bc abc0 a13d
00000270: c035 123e 7f1b 21be 3c32 cbbd d070 31be
00000280: 0e90 20be e6bc ebbd 1832 173e 04bd 2f3e
00000290: e5c4 88bd 2434 a73d 0939 3b3e a4a1 153d
000002a0: e3ce 50bd 16e3 b63d 6662 223e 284d 203d
000002b0: 705c 26be 8726 12be 6856 21bd 3383 d3bd
000002c0: f072 243e 537b 24be 5ab4 abbd 1104 0b3d
000002d0: 173b 11be ded0 05be e52e 03be 39d5 0abe
000002e0: 7e1f 17be f765 a93d fece 053e e9f6 26be
000002f0: 8d30 01bd 5c92 f6bd 5d4b 88bd d362 593e
00000300: c93c d8bd f254 45be b26f fbba 3a25 2c3e
00000310: d787 9b3d b76a d63d e2ea 583d 7c13 babc
00000320: 4778 463d 6fba 553e e984 d6bd 7f93 1cbe
00000330: 27d9 533e 1983 793d e20f b7bd c13a 4bbd
00000340: 6ae3 293e 02e7 71bd e12f 85bd 7f59 16bd
00000350: 0b91 96bd 10ed 4d3e 13a9 21bd 6896 febd
00000360: 49a4 17be 5230 e13b bb9b 98b9 2003 56bc
00000370: 2740 b4bd 636c 96bd 36d1 08be 320f 00be
00000380: 7bfb 29be 37d2 d73d c6c2 833d 44ec 383d
00000390: c2b5 0ebd c2ad eebd 2847 063e 34e1 823d
000003a0: c0fd a9bd 1a3d d6bc 3232 683d 6715 883d
000003b0: 0b43 fb3d 18bc 533e ab78 1d3d b562 96bd
000003c0: 718d 01be 44fd 92bc e104 2b3e d75a 583e
000003d0: 3b20 203e 6c2c 623d 090a 8c3d 0178 0a3d
000003e0: 37c4 50be d77d aebd ee01 0cbd 04dc 12be
000003f0: c0b1 5b3e ee37 a4bd a17d 4a3d 5bde e53c
